models/results/insight_0_model.pth (torch, 190424 bytes, 40 tensors)

rho f4 [4]
-0.17298397 -0.21644913 -0.15573922 0.035438776
00000000: b622 31be d7a4 5dbe 1a7a 1fbe 4028 113d

f_layers.0.weight f4 [128, 153]
-0.012065448 0.028919762 -0.041952346 -0.03628638 -0.027488982 0.009780655 0.0006015236 0.035484754
0.0075921156 0.019181466 -0.017157318 -0.01516118 -0.04791785 -0.033559024 -0.018794343 0.000115730596
0.021049738 0.029127926 -0.041199792 -0.02419053 0.014824917 0.039319426 -0.0020358535 0.040698417
-0.016980197 0.014104981 0.04097584 -0.035616845 -0.031210128 -0.0128789265 -0.021887274 0.0349451
-0.034388117 -0.018608037 -0.025615795 -0.04717554 -0.027672235 0.050702162 0.019331599 0.029454218
-0.0026426725 -0.03320235 0.0026550193 -0.046458766 -0.036095463 -0.025348509 0.030664526 0.023292996
-0.013761687 -0.004661752 0.02999335 0.04727524 0.021433463 0.0049411696 0.031604767 -0.030586665
0.009323087 -0.039043427 -0.035376716 -0.025526445 0.021934696 0.02010582 -0.029319938 0.01459587
0.024321811 -0.007105446 -0.00024627347 0.011505105 0.027210496 0.04687748 -0.038212035 -0.018170152
0.014865698 0.039824888 0.039780695 0.0437384 0.009871194 -0.048156694 0.0041156253 -0.032777548
-0.049517922 0.044046573 0.035720713 -0.0510814 0.0070634685 -0.008384585 -0.009188379 -0.026724696
0.016605517 -0.032170936 0.013735872 0.024546571 0.035487156 0.018297272 -0.049406957 -0.03215277
0.024204008 0.009027435 -0.038802523 -0.028575359 0.046393726 0.03323145 -0.02155013 -0.012452371
-0.047143623 -0.0014335385 -0.037543204 -0.039977103 -0.0027641973 0.0072676563 -0.02031036 0.026065726
-0.030306643 0.044848945 0.033062536 -0.041813575 -0.012313336 0.0020873656 0.007220804 0.011748386
0.019217221 0.0018685096 -0.02434313 0.022870982 -0.047447912 -0.029354012 -0.012401119 -0.025515994
-0.021857444 -0.04234679 -0.010601103 0.008603942 -0.033464983 -0.0030649623 0.034587394 -0.0051101563
0.0013904208 -0.004748698 0.010041455 0.029240573 0.045351144 0.029859066 0.047068357 -0.004452468
-0.04470065 -0.023626775 0.032774523 -0.00027324562 -0.027024502 -0.03806866 -0.046382666 -0.041842774
-0.012825307 -0.0029512201 0.033302348 -0.042592734 0.037489858 -0.05026668 -0.00945746 -0.02126801
-0.00830192 0.000633174 -0.040104896 -0.035519134 -0.0130229285 0.0040223775 -0.02577552 0.019916864
-0.044033553 0.0012476256 0.041044105 -0.019745266 0.048637044 0.013276209 -0.0382291 0.04214095
-0.008713069 -0.024729826 0.042133007 -0.03964914 0.012810836 -0.01037971 0.036620077 0.010627951
0.016161218 0.01843138 -0.00384163 -0.0035188731 -0.039657697 0.02585058 0.040991254 0.028184175
-0.03648065 0.0038325223 -0.03585945 -0.027429067 -0.024131166 0.017280698 -0.031403627 5.6933506e-05
-0.0061177677 0.03368963 -0.037841238 -0.035774533 -0.031252023 0.03300435 -0.01614248 0.037046563
0.014115042 0.006296397 -0.00052177964 -0.012187954 0.0062873154 -0.015932338 -0.00097453414 0.007276509
-0.039182954 -0.030625703 0.03781768 -0.040608145 -0.0035914718 0.041938916 0.017251233 0.0014679198
-0.042996418 0.019398153 -0.037322506 -0.017930077 -0.016631495 -0.0073217726 -0.011118361 0.040316306
0.0036126603 0.039127275 0.030328553 -0.034378547 0.019693773 -0.03849243 -0.021083135 0.013170385
0.008942145 0.031638276 -0.023344917 -0.0109793525 0.024287993 -0.047939956 0.035143446 -0.041161187
0.0006979446 -0.008955865 -0.027634135 0.006372699 0.040996436 -0.014528391 -0.030132277 -0.0188631
00000000: 28ae 45bc 23e9 ec3c 39d6 2bbd 07a1 14bd
00000010: 9330 e1bc 0a3f 203c 91af 1d3a 7658 113d
00000020: 48c7 f83b 7322 9d3c 818d 8cbc 9966 78bc
00000030: 8245 44bd 3075 09bd 98f6 99bc 64b4 f238
00000040: 8070 ac3c b09d ee3c 1dc1 28bd 382b c6bc
00000050: 35e4 723c 680d 213d f46b 05bb 62b3 263d
00000060: 0e1a 8bbc 9418 673c 48d6 273d f8e2 11bd
00000070: 62ac ffbc 2202 53bc f14c b3bc 9822 0f3d
00000080: 8eda 0cbd e26f 98bc 37d8 d1bc 243b 41bd
00000090: e2b0 e2bc 12ad 4f3d 4d5d 9e3c f949 f13c
000000a0: b030 2dbb 30ff 07bd d5ff 2d3b 8c4b 3ebd
000000b0: d6d8 13bd ada7 cfbc 2c34 fb3c f4d0 be3c
000000c0: b378 61bc 9cc1 98bb 9db4 f53c afa3 413d
000000d0: 3b95 af3c 89e9 a13b 0074 013d e390 fabc
000000e0: dcbf 183c 00ec 1fbd 2de7 10bd d61c d1bc
000000f0: 64b0 b33c f6b4 a43c 5e30 f0bc 8423 6f3c
00000100: 893e c73c cdd4 e8bb 441e 81b9 e87f 3c3c
00000110: 8ce8 de3c 9a02 403d 3984 1cbd 92d9 94bc
00000120: 428f 733c 6c1f 233d 15f1 223d 0927 333d
00000130: caba 213c f43f 45bd 5edc 863b c041 06bd
00000140: 4ed3 4abd 2e6a 343d e24f 123d bb3a 51bd
00000150: ab74 e73b 805f 09bc db8a 16bc c0ed dabc
00000160: 4b08 883c acc5 03bd 6c0c 613c e415 c93c
00000170: fb5a 113d 29e4 953c f35e 4abd 9fb2 03bd
00000180: 7c47 c63c cfe7 133c 65ef 1ebd df16 eabc
00000190: 5907 3e3d b31d 083d e689 b0bc 0805 4cbc
000001a0: ac19 41bd 92e5 bbba e7c6 19bd 08bf 23bd
000001b0: 8927 35bb 8525 ee3b e961 a6bc ca87 d53c
000001c0: a345 f8bc 87b3 373d 956c 073d b644 2bbd
000001d0: e0bd 49bc 2fcc 083b 7f9c ec3b 4d7c 403c
000001e0: 6f6d 9d3c c7e8 f43a 3e6b c7bc ed5b bb3c
000001f0: be58 42bd d377 f0bc 102e 4bbc eb06 d1bc
00000200: 620e b3bc d473 2dbd 40b0 2dbc 8cf7 0c3c
00000210: 9412 09bd 89dd 48bb 83ab 0d3d 1973 a7bb
00000220: c83e b63a f79a 9bbb ea84 243c ed89 ef3c
00000230: 1fc2 393d 009b f43c c0ca 403d 02e6 91bb
00000240: 0718 37bd f08c c1bc 943e 063d 6842 8fb9
00000250: 7d62 ddbc e2ed 1bbd c0fb 3dbd 5463 2bbd
00000260: 3d21 52bc 4269 41bb 0b68 083d b875 2ebd
00000270: f78e 193d 6fe4 4dbd 76f3 1abc 403a aebc
00000280: c704 08bc 96fb 253a 0845 24bd 837c 11bd
00000290: 1f5e 55bc 26ce 833b 2f27 d3bc b128 a33c
000002a0: 875c 34bd 5e87 a33a dd1d 283d d3c0 a1bc
000002b0: a337 473d 7584 593c 1e96 1cbd fd9b 2c3d
000002c0: 43c1 0ebc 3496 cabc a993 2c3d 2367 22bd
000002d0: 8ae4 513c a90f 2abc effe 153d db20 2e3c
000002e0: 8864 843c 68fd 963c dbc3 7bbb e59c 66bb
000002f0: 1c70 22bd 98c4 d33c 72e6 273d 80e2 e63c
00000300: bc6c 15bd 0e2b 7b3b 5ce1 12bd ecb2 e0bc
00000310: b9ae c5bc 4090 8d3c 17a1 00bd e3cb 6e38
00000320: 8e77 c8bb 23fe 093d 6aff 1abd 5188 12bd
00000330: 1f02 00bd 922f 073d 3c3d 84bc 23be 173d
00000340: c742 673c 0252 ce3b 0ac8 08ba fcaf 47bc
00000350: d305 ce3b 8984 82bc e177 7fba c86f ee3b
00000360: 4e7e 20bd c1e2 fabc b6e6 1a3d ba54 26bd
00000370: e65e 6bbb 24c8 2b3d 7552 8d3c 3767 c03a
00000380: 031d 30bd e0e8 9e3c 7cdf 18bd 19e2 92bc
00000390: c63e 88bc 7beb efbb c929 36bc b622 253d
000003a0: 62c2 6c3b ec43 203d 9673 f83c 85d0 0cbd
000003b0: d654 a13c 3daa 1dbd 8ab6 acbc 99c8 573c
000003c0: 1382 123c 2397 013d d73d bfbc bee2 33bc
000003d0: 9df7 c63c b05c 44bd 93f2 0f3d a298 28bd
000003e0: 45f6 363a 9fbb 12bc fb60 e2bc 13d2 d03b
000003f0: e1eb 273d 7d08 6ebc f7d7 f6bc ca86 9abc

f_layers.0.bias f4 [128]
0.036780708 0.02797576 0.013903732 -0.038736884 0.028541835 -0.02164268 0.028344294 -0.034692436
0.016234031 -0.0014126751 0.035891045 0.0054135076 0.024444133 -0.04621724 0.01495225 -0.048749376
-0.04534555 -0.04921384 -0.035764404 -0.020669278 0.0127972495 0.0065452056 -0.0146057615 0.018350959
-0.045886528 0.04488068 -0.02650823 -0.020720711 0.0017028216 -0.018989494 0.018384807 -0.004929333
0.024109924 -0.0073980857 -0.019055113 0.006700708 0.018946517 0.026731733 0.00010469559 0.030673925
-0.026251497 -0.012934384 -0.049346752 -0.037521724 -0.04249741 -0.03387137 0.016424708 -0.028929643
-0.04825904 -0.046231963 -0.040941413 0.013928545 -0.018007739 0.0016483578 0.020370195 0.040310275
-0.030581316 0.035676572 0.022582468 -0.0002309677 -0.018583644 0.014471985 0.0012146671 0.017838774
-0.041359294 -0.019986289 -0.006019185 -0.048210032 -0.03526505 0.014073983 -0.045383252 0.028271103
0.045634028 -0.0011435348 -0.009065277 -0.0053921603 -0.016151382 0.047566563 -0.027759783 -0.03756826
-0.02066125 -0.0056679 -0.02895631 -0.012514778 -0.015345335 0.040750187 -0.021838866 0.0044829
-0.002001274 -0.0050455057 -0.036296744 0.018354172 0.032017242 -0.0010724078 -0.011649584 0.017537098
0.0018263275 -0.0061207763 0.013903586 0.02519306 0.023180619 -0.026190223 0.012425595 -0.02084425
0.009824891 -0.017633984 -0.0010060044 0.01339845 -0.0019311884 -0.04153895 -0.035830244 -0.015296871
-0.03012185 -0.04681599 -0.038199067 -0.02096492 -0.03133008 0.023943024 0.020592202 -0.04794959
-0.0032402507 -0.004594624 0.00056322425 0.02450859 -0.02012239 0.049106956 0.027344791 -0.04833746
00000000: 5ea7 163d 6c2d e53c 7bcc 633c 91aa 1ebd
00000010: 91d0 e93c fd4b b1bc 4b32 e83c a819 0ebd
00000020: 3bfd 843c 8329 b9ba 7d02 133d cb63 b13b
00000030: 103f c83c 4a4e 3dbd 48fa 743c 6dad 47bd
00000040: 41bc 39bd 7494 49bd b27d 12bd 9e52 a9bc
00000050: 8eab 513c 2a79 d63b 014d 6fbc c054 963c
00000060: 83f3 3bbd ced4 373d ca27 d9bc 7bbe a9bc
00000070: 3631 df3a db8f 9bbc bc9b 963c 3e86 a1bb
00000080: 2d82 c53c a46b f2bb 7819 9cbc 9d91 db3b
00000090: ba35 9b3c 82fc da3c 0490 db38 e247 fb3c
000000a0: 610d d7bc bdea 53bc d21f 4abd 61b0 19bd
000000b0: c411 2ebd b5bc 0abd 1c8d 863c dcfd ecbc
000000c0: 45ab 45bd ba5d 3dbd 2fb2 27bd 8d34 643c
000000d0: f784 93bc b60d d83a 65df a63c 631c 253d
000000e0: ab85 fabc 9921 123d defe b83c eb2f 72b9
000000f0: ba3c 98bc e81b 6d3c 7735 9f3a 9f22 923c
00000100: 5d68 29bd 49ba a3bc 953c c5bb e277 45bd
00000110: 1672 10bd 9096 663c cae3 39bd cd98 e73c
00000120: bfea 3a3d a9e2 95ba 8786 14bc b8b0 b0bb
00000130: e74f 84bc 28d5 423d 7c68 e3bc 2de1 19bd
00000140: c841 a9bc cbb9 b9bb c935 edbc c90a 4dbc
00000150: 006b 7bbc abe9 263d 6ce7 b2bc 4ae5 923b
00000160: ce27 03bb c554 a5bb e5ab 14bd 7d5b 963c
00000170: 8324 033d 0990 8cba e6dd 3ebc f6a9 8f3c
00000180: 6261 ef3a cb90 c8bb decb 633c ad61 ce3c
00000190: 48e5 bd3c e18c d6bc b994 4b3c 90c1 aabc
000001a0: 94f8 203c 2575 90bc e8db 83ba 2c85 5b3c
000001b0: ee1f fdba bf24 2abd bcc2 12bd ba9f 7abc
000001c0: 19c2 f6bc 20c2 3fbd a076 1cbd a0be abbc
000001d0: f853 00bd 2924 c43c fab0 a83c ca66 44bd
000001e0: 635a 54bb 808e 96bb 57a5 133a 3dc6 c83c
000001f0: b6d7 a4bc 6024 493d 2f02 e03c 80fd 45bd

f_layers.1.weight f4 [128]
0.60896075 0.6132881 0.6151896 0.6104233 0.61162484 0.6196726 0.6140821 0.6188336
0.61858845 0.61293507 0.61430895 0.61140436 0.61093855 0.61090934 0.615458 0.61655056
0.6125718 0.61034185 0.61523175 0.611455 0.61121196 0.6121181 0.6103298 0.6123438
0.61089337 0.6143227 0.61085624 0.61219954 0.61076516 0.6124807 0.6113586 0.6110812
0.61197525 0.6203084 0.61637634 0.6111873 0.6149896 0.61442417 0.61077756 0.61181015
0.61204165 0.61484617 0.6125079 0.6241339 0.612218 0.6119511 0.6147591 0.6132373
0.6119397 0.6104106 0.6073999 0.6071787 0.6128296 0.6099953 0.61151236 0.6092192
0.6162416 0.611506 0.6134908 0.6117426 0.6131681 0.6121801 0.6121799 0.61296207
0.6112919 0.6106145 0.6116911 0.6079333 0.62613356 0.61286515 0.61078334 0.61037326
0.6141846 0.6107709 0.61516327 0.61139107 0.6277204 0.6162272 0.6164662 0.60980374
0.61208004 0.61540365 0.61079353 0.61414826 0.6129798 0.61401445 0.6092779 0.6120793
0.62277037 0.6122423 0.617629 0.6110053 0.61559904 0.6116014 0.61466366 0.6150001
0.6090957 0.6147777 0.61319464 0.6150062 0.6108307 0.61626846 0.61077386 0.612287
0.6146984 0.61658436 0.6120501 0.6115118 0.61457604 0.6112806 0.61595464 0.6121895
0.61537033 0.611799 0.6095149 0.6159655 0.6121168 0.61069465 0.61342514 0.61122745
0.61489993 0.61241114 0.6113167 0.61438864 0.6135497 0.61458 0.61845917 0.61128646
00000000: dae4 1b3f 7300 1d3f 117d 1d3f b444 1c3f
00000010: 7293 1c3f dda2 1e3f 7c34 1d3f e16b 1e3f
00000020: d05b 1e3f 50e9 1c3f 5a43 1d3f ff84 1c3f
00000030: 7866 1c3f 8e64 1c3f a88e 1d3f 42d6 1d3f
00000040: 81d1 1c3f 5d3f 1c3f d47f 1d3f 5188 1c3f
00000050: 6378 1c3f c6b3 1c3f 933e 1c3f 90c2 1c3f
00000060: 8263 1c3f 4144 1d3f 1361 1c3f 1cb9 1c3f
00000070: 1b5b 1c3f 89cb 1c3f ff81 1c3f d16f 1c3f
00000080: 69aa 1c3f 88cc 1e3f d7ca 1d3f c576 1c3f
00000090: f56f 1d3f e74a 1d3f eb5b 1c3f 979f 1c3f
000000a0: c3ae 1c3f 8f66 1d3f 51cd 1c3f 3dc7 1f3f
000000b0: 52ba 1c3f d4a8 1c3f da60 1d3f 1ffd 1c3f
000000c0: 15a8 1c3f de43 1c3f 8f7e 1b3f 1070 1b3f
000000d0: 67e2 1c3f a728 1c3f 138c 1c3f caf5 1b3f
000000e0: 02c2 1d3f a88b 1c3f bc0d 1d3f 2a9b 1c3f
000000f0: 96f8 1c3f d6b7 1c3f d2b7 1c3f 15eb 1c3f
00000100: a07d 1c3f 3b51 1c3f ca97 1c3f 84a1 1b3f
00000110: 4a4a 203f bbe4 1c3f 4c5c 1c3f 6c41 1c3f
00000120: 343b 1d3f 7b5b 1c3f 577b 1d3f 2084 1c3f
00000130: 49b2 203f 11c1 1d3f bbd0 1d3f 191c 1c3f
00000140: 47b1 1c3f 188b 1d3f f75c 1c3f d238 1d3f
00000150: 3fec 1c3f 0d30 1d3f a3f9 1b3f 3bb1 1c3f
00000160: e16d 1f3f e9bb 1c3f ef1c 1e3f d86a 1c3f
00000170: e697 1d3f e991 1c3f 995a 1d3f a670 1d3f
00000180: b2ed 1b3f 1262 1d3f 53fa 1c3f 0c71 1d3f
00000190: 675f 1c3f c5c3 1d3f ad5b 1c3f d7be 1c3f
000001a0: e05c 1d3f 79d8 1d3f 51af 1c3f 0a8c 1c3f
000001b0: db54 1d3f e37c 1c3f 34af 1d3f 73b8 1c3f
000001c0: e988 1d3f dc9e 1c3f 2b09 1c3f eaaf 1d3f
000001d0: b0b3 1c3f 7c56 1c3f 6e09 1d3f 6779 1c3f
000001e0: 156a 1d3f fac6 1c3f 407f 1c3f 9348 1d3f
000001f0: 9811 1d3f 1d55 1d3f 5753 1e3f 457d 1c3f

f_layers.1.bias f4 [128]
-0.002257817 -0.0012484717 0.0012716901 -0.0009249346 -0.0011895314 0.00980267 7.804235e-05 0.0061044507
0.0032888306 0.00011373194 0.0011914732 -0.001541982 -0.0007299652 -0.0019047889 0.0030118008 0.00038188222
0.0013885383 -0.0018623825 0.0026934291 -0.002228823 -0.0023060907 -0.0028975504 -0.0030326375 -0.00086104864
-0.001218481 0.00022421344 -0.0016162399 0.00021232555 -0.0007777966 -0.00140585 -0.00095177034 -0.0016927379
-0.0010004804 0.0002876032 0.0023994362 -0.0016715985 0.002361258 0.0006264988 -0.0024254129 -0.0010699998
-0.00087386556 0.0012076581 -0.0010786533 0.0065725977 -0.002225655 0.00013119665 0.0033841985 -0.00030802572
0.00043671858 -0.0021339105 -0.0023532577 -0.003968829 0.00072307646 -0.0020189297 -0.00043524944 -0.0026503913
0.0018659421 -0.0015319876 -0.0005827857 -0.0010285289 0.0003767799 0.0013551723 -0.0022564325 -0.00034340893
-0.0020866112 -0.0024581354 -0.001560441 -0.003237285 0.0054685664 -0.0006332349 -0.0019026177 -0.0028999026
0.00047566544 -0.0018242444 0.0050386186 -0.0038186968 0.008267078 0.0007545332 0.0033555944 -0.0021887934
-0.0018545712 0.0011918381 -0.002500444 0.000748801 2.0527297e-05 -0.0014805422 -0.003839512 -0.0008343342
0.006650299 -0.0009974582 0.006923579 -0.0018980904 0.0030153992 -0.001248211 0.0019961423 -0.0019938326
-0.0018807633 8.394705e-05 -0.000261779 0.0032811204 -0.0017328031 0.003752604 -0.0024074367 0.00015432306
0.0019212598 0.004932989 -0.0011596861 -0.0025597923 0.00094077067 -0.0019138743 0.00011679219 -0.00025568862
0.0027254121 -0.0012535211 -0.0017319982 -0.002317605 -0.0009864231 -0.0018330588 -0.00041535 -0.0026101226
-0.00021107832 -0.00058451784 -0.00022265723 0.0025029932 0.0020030711 0.0011287744 0.00015367381 -0.002264958
00000000: e2f7 13bb c2a3 a3ba d7ae a63a 4f77 72ba
00000010: 0dea 9bba 619b 203c abaa a338 d807 c83b
00000020: 6c89 573b 5f83 ee38 352b 9c3a 551c caba
00000030: 235b 3fba 1caa f9ba a261 453b 5d37 c839
00000040: 9dff b53a 301b f4ba 3e84 303b 7211 12bb
00000050: c821 17bb d4e4 3dbb 37bf 46bb ffb7 61ba
00000060: 70b5 9fba d61a 6b39 03d8 d3ba b5a3 5e39
00000070: 0ce5 4bba 8044 b8ba 3a80 79ba dcde ddba
00000080: 8d22 83ba 73c9 9639 dc3f 1d3b 8a19 dbba
00000090: 56bf 1a3b 9f3b 243a adf3 1ebb 3c3f 8cba
000000a0: 2014 65ba 484a 9e3a 9961 8dba f25e d73b
000000b0: 4bdc 11bb d591 0939 6ec9 5d3b 837e a1b9
000000c0: 60f7 e439 14d9 0bbb 1d39 1abb f30c 82bb
000000d0: d78c 3d3a 0550 04bb 3132 e4b9 30b2 2dbb
000000e0: a192 f43a f9cc c8ba 16c6 18ba b4cf 86ba
000000f0: 8b8a c539 09a0 b13a a8e0 13bb 910b b4b9
00000100: 87bf 08bb ab18 21bb b687 ccba a128 54bb
00000110: a931 b33b adff 25ba 4261 f9ba 4b0c 3ebb
00000120: bc62 f939 7c1b efba ff1a a53b 1a43 7abb
00000130: a372 073c decb 453a 88e9 5b3b dc71 0fbb
00000140: 1515 f3ba 7337 9c3a 7dde 23bb 2f4b 443a
00000150: 0932 ac37 c10e c2ba 52a0 7bbb 38b7 5aba
00000160: c0ea d93b 25bd 82ba 31df e23b 58c9 f8ba
00000170: 019e 453b 039b a3ba b6d1 023b f6aa 02bb
00000180: f283 f6ba bb0c b038 623f 89b9 1108 573b
00000190: 391f e3ba 3fee 753b 16c6 1dbb c8d1 2139
000001a0: c8d2 fb3a e9a4 a13b 9c00 98ba 30c2 27bb
000001b0: 0d9e 763a f7da faba 54ee f438 f20d 86b9
000001c0: d49c 323b 304d a4ba 3704 e3ba f6e2 17bb
000001d0: de4a 81ba 3f43 f0ba 55c3 d9b9 970e 2bbb
000001e0: e854 5db9 543a 19ba 1879 69b9 4209 243b
000001f0: f545 033b 62f3 933a 8023 2139 b16f 14bb

f_layers.1.running_mean f4 [128]
0.051960275 0.018004254 0.013364642 -0.05776611 0.08373705 -0.030846333 0.110621125 -0.10597819
0.13043639 -0.054393437 0.07425444 -0.0011272395 -0.014885552 -0.0015771537 -0.0017852617 -0.021074992
-0.07266758 -0.04721832 -0.053885963 0.016331501 0.011779213 -0.04434199 -0.059273243 -0.0068821847
-0.09346281 0.07397121 -0.08186674 -0.05243651 -0.053540915 0.031692073 0.0010710424 -0.029656725
-0.01097447 0.048509594 0.0012058896 0.050264996 -0.043138556 0.05458934 -0.05165288 0.028401593
-0.09489866 0.012115367 -0.07603323 0.09187819 0.018340737 -0.035716448 -0.029296013 -0.023121243
-0.03465598 -0.05978216 -0.122587085 0.026761763 -0.043139976 -0.0063130055 0.094522886 0.04497758
0.113165155 0.026171649 0.053557478 0.023416204 -0.034324255 -0.06930473 -0.08157293 -0.051332887
-0.05783426 0.0066758296 0.014203044 -0.013334283 0.049334273 0.0784233 -0.06646193 0.06705755
0.14529769 0.0391203 -0.052750044 -0.0071026827 0.015022369 0.07517559 0.07146125 -0.020899778
0.014071616 0.019594241 -0.03155782 -0.024349064 -0.033360254 0.05243456 0.03383588 0.04735496
0.061806343 0.03276015 -0.074084796 0.015594033 0.045096915 0.061407447 -0.06568679 -0.036510292
0.0014391977 -0.02234855 -0.016799618 0.02981498 0.06993359 -0.09555529 0.036873132 0.04784789
-0.021286195 -0.028495532 -0.06690568 -0.008522631 0.037186854 -0.075374745 0.030342637 -0.071769655
-0.0396571 -0.05697908 -0.106928855 0.003481404 0.046643205 0.01689631 0.024983564 -0.01510048
0.026576981 0.045489755 -0.03349645 0.03778334 -0.009252159 0.048729703 0.08078586 -0.00990168
00000000: 4cd4 543d a87d 933c 5ff7 5a3c 289c 6cbd
00000010: 557e ab3d 73b1 fcbc 548d e23d 180b d9bd
00000020: 1e91 053e a7cb 5ebd b612 983d e2bf 93ba
00000030: 88e2 73bc 7fb8 ceba 71ff e9ba 76a5 acbc
00000040: bdd2 94bd ff67 41bd 87b7 5cbd a4c9 853c
00000050: 9afd 403c f29f 35bd 80c8 72bd f383 e1bb
00000060: 6e69 bfbd 387e 973d c0a9 a7bd aac7 56bd
00000070: b84d 5bbd 8ccf 013d 3862 8c3a a9f2 f2bc
00000080: 43ce 33bc ffb1 463d f10e 9e3a abe2 4d3d
00000090: 0eb2 30bd 1299 5f3d f891 53bd 75aa e83c
000000a0: 3b5a c2bd 887f 463c 4fb7 9bbd a22a bc3d
000000b0: 503f 963c 694b 12bd 31fe efbc c368 bdbc
000000c0: 6ef3 0dbd 23de 74bd f00e fbbd 7c3b db3c
000000d0: 8bb3 30bd 54dd cebb 3795 c13d 693a 383d
000000e0: 22c3 e73d ed65 d63c 165f 5b3d 57d3 bf3c
000000f0: 9797 0cbd a3ef 8dbd b50f a7bd 6f42 52bd
00000100: 9ee3 6cbd ebc0 da3b e2b3 683c 0978 5abc
00000110: bc12 4a3d 659c a03d 311d 88bd 7855 893d
00000120: ebc8 143e 9c3c 203d 6e10 58bd 9fbd e8bb
00000130: 6220 763c a9f5 993d 475a 923d 0336 abbc
00000140: a38c 663c 1a84 a03c c642 01bd b077 c7bc
00000150: c3a4 08bd 9fc5 563d 7e97 0a3d 46f7 413d
00000160: a628 7d3d 822f 063d c5b9 97bd 1d7e 7f3c
00000170: 8bb7 383d 6086 7b3d cc86 86bd d18b 15bd
00000180: 76a3 bc3a 4e14 b7bc 5a9f 89bc 8c3e f43c
00000190: 5839 8f3d 7eb2 c3bd 4808 173d 26fc 433d
000001a0: 6360 aebc 766f e9bc d805 89bd 81a2 0bbc
000001b0: 3e51 183d 135e 9abd 1f91 f83c f8fb 92bd
000001c0: 7c6f 22bd e562 69bd 84fd dabd 4428 643b
000001d0: f20c 3f3d 216a 8a3c 55aa cc3c 0168 77bc
000001e0: f8b7 d93c 7753 3a3d 9333 09bd b4c2 1a3d
000001f0: 5e96 17bc cc98 473d 0f73 a53d a83a 22bc

f_layers.1.running_var f4 [128]
0.04661424 0.048575286 0.049987618 0.039197277 0.038417287 0.050174557 0.046792813 0.053384595
0.07996134 0.063401096 0.046678346 0.07708828 0.05046101 0.036953643 0.037056785 0.06363038
0.04865074 0.033605807 0.034577426 0.04084087 0.032750674 0.042072494 0.03424705 0.04390403
0.045875438 0.04045823 0.043178976 0.051125683 0.031229032 0.045461595 0.041467328 0.033295486
0.058604375 0.059197415 0.068518266 0.041255865 0.038939808 0.05597118 0.04858864 0.051313948
0.055822898 0.11185467 0.038724117 0.057493676 0.043848068 0.03733218 0.044932276 0.04849767
0.07572513 0.030621488 0.03339779 0.041855954 0.033166848 0.031517837 0.030885553 0.061349556
0.058451496 0.050983865 0.06611912 0.025973054 0.03363224 0.06002724 0.0645709 0.04715191
0.05127157 0.040555287 0.06804262 0.042667214 0.047589656 0.07359709 0.03655597 0.04282191
0.04622653 0.03665291 0.041765757 0.059712395 0.03578029 0.059216414 0.07813742 0.057440992
0.035718914 0.06244681 0.05415318 0.0426255 0.04767723 0.050028224 0.0637915 0.0701547
0.046295404 0.05687923 0.075092755 0.050126594 0.0641841 0.025573969 0.070564024 0.05171926
0.038736362 0.04608616 0.05919537 0.059360944 0.04903429 0.03633831 0.037557695 0.042219188
0.05923579 0.031682577 0.05042584 0.03931168 0.0281441 0.032980002 0.052183565 0.04229531
0.037655022 0.030794246 0.042590335 0.081173316 0.06347322 0.050508164 0.03771032 0.05434874
0.06464092 0.04686004 0.055333138 0.07426413 0.046329774 0.034147862 0.04787508 0.044491865
00000000: 93ee 3e3d e1f6 463d d1bf 4c3d 538d 203d
00000010: 725b 1d3d d683 4d3d d2a9 3f3d cea9 5a3d
00000020: c5c2 a33d 6fd8 813d cb31 3f3d 76e0 9d3d
00000030: 34b0 4e3d b45c 173d dbc8 173d a550 823d
00000040: 0046 473d 3ea6 093d 0fa1 0d3d c248 273d
00000050: 9225 063d 3554 2c3d a246 0c3d b6d4 333d
00000060: e2e7 3b3d 87b7 253d 70dc 303d 2a69 513d
00000070: 07d4 ff3c f035 3a3d a5d9 293d d960 083d
00000080: 240b 703d fd78 723d 4e53 8c3d e9fb 283d
00000090: 597f 1f3d 0942 653d e204 473d 932e 523d
000000a0: 8da6 643d 1014 e53d 2e9d 1e3d 7d7e 6b3d
000000b0: 089a 333d a1e9 183d e80a 383d 7ea5 463d
000000c0: c715 9b3d ead9 fa3c 1fcc 083d 2671 2b3d
000000d0: f6d9 073d d918 013d b303 fd3c ac49 7b3d
000000e0: d66a 6f3d 75d4 503d 7669 873d 71c5 d43c
000000f0: f6c1 093d 20df 753d bf3d 843d 5c22 413d
00000100: 2302 523d 4d1d 263d ee59 8b3d d1c3 2e3d
00000110: 5fed 423d 12ba 963d b6bb 153d 0766 2f3d
00000120: 0858 3d3d 5d21 163d 9212 2b3d fc94 743d
00000130: 5a8e 123d e98c 723d 8306 a03d 3f47 6b3d
00000140: ff4d 123d 3ac8 7f3d bacf 5d3d 1498 2e3d
00000150: 3349 433d 65ea 4c3d 1ea5 823d 44ad 8f3d
00000160: 40a0 3d3d 32fa 683d 3bca 993d 8b51 4d3d
00000170: f472 833d 8080 d13c df83 903d 93d7 533d
00000180: 05aa 1e3d d7c4 3c3d d876 723d 7624 733d
00000190: 2ed8 483d 7bd7 143d 19d6 193d 07ee 2c3d
000001a0: 3aa1 723d 97c5 013d 538b 4e3d 4905 213d
000001b0: 758e e63c 0a16 073d 6fbe 553d d93d 2d3d
000001c0: 273c 1a3d 3744 fc3c 3473 2e3d 323e a63d
000001d0: 3ffe 813d a6e1 4e3d 2376 1a3d c99c 5e3d
000001e0: 7562 843d 50f0 3f3d 00a5 623d cb17 983d
000001f0: 4ac4 3d3d a1de 0b3d a918 443d 1a3d 363d

f_layers.4.weight f4 [64, 128]
0.010011912 0.018241795 0.004586764 0.013386458 0.005252791 0.016596474 -0.023371816 -0.009974835
0.067963526 0.030551331 -0.039191674 0.02184788 0.006426326 -0.008309033 0.023754168 0.040605538
0.014551245 -0.02959449 -0.041787904 0.021599263 0.04125 -0.027906729 0.030108878 -0.0042589493
-0.008871953 -0.012762097 0.025190981 0.016345402 -0.03802227 0.04425162 -0.022019673 -0.040594913
0.014453536 0.06068664 0.06996426 -0.026673583 0.0099979695 0.040356603 0.0282785 -0.033294182
-0.047664903 -0.030153792 0.000548996 0.004027449 0.040434666 -0.047299076 0.023152737 -0.023721913
0.047871456 -0.040918358 -0.0013271952 -0.026114805 -0.052359227 0.03038436 0.04384098 -0.0049068104
0.004494548 -0.012994843 -0.03669198 0.039719045 -0.0007384902 -0.006276313 0.00986253 -0.0072582606
-0.015658284 -0.039339054 -0.013667339 0.030524237 0.046539716 0.016380582 -0.0451444 -0.039331354
0.0015535638 -0.026985062 -0.000988774 0.038277607 0.04520621 -0.024721215 0.029188503 0.032667056
-0.002560106 0.06273106 0.016055739 -0.03724565 0.020494673 0.05429564 -0.011013018 0.021431156
0.03222896 0.014894072 -0.017839251 -0.027563296 -0.0006591299 0.02818617 -0.019566465 0.026965838
0.014444951 -0.012405077 -0.040072925 -0.02948355 0.043275468 -0.010240119 0.023387419 0.017313909
-0.030215522 -0.0146635985 0.0041162786 0.014411738 -0.025552344 -0.019949796 0.047596373 -0.046653405
0.001264772 0.022638608 0.027379096 0.036256403 0.026588002 -0.024696907 -0.00486943 0.032385588
-0.025684314 0.047539797 -0.020686273 -0.007971759 0.003166198 -0.010981703 0.072263084 -0.005447883
0.04028944 -0.03579439 -0.013961059 -0.05339901 -0.035152953 0.04753974 -0.03441727 0.043257218
-0.03572071 0.04692067 -0.01255413 -0.009266689 0.04889548 -0.014358896 0.04433194 0.0050266995
0.043702327 -0.020010822 0.0047323685 -0.024037024 -0.03139629 -0.04442072 -0.005998034 0.054725014
0.0071022063 0.009513197 -0.013343851 -0.006885239 0.033620093 -0.051481638 -0.002836122 -0.04585084
-0.03568303 0.025237706 0.01256738 -0.032046255 0.027280893 0.022649808 -0.031950068 0.02390445
-0.041156217 -0.0044593927 0.005339659 -0.019377135 -0.026379 -0.036807053 -0.012014985 -0.023739701
-0.043251183 0.008047298 0.014443374 -0.04406404 -0.02253701 -0.034418955 -0.026817163 0.00073138904
-0.042172868 0.045983173 0.0130257895 0.017014569 0.01357306 -0.031010816 0.006726073 -0.043118086
-0.028328272 0.018686494 -0.042520538 0.03879266 0.0058189277 0.006943643 0.0004719279 -0.022478597
0.004358526 0.012004281 -0.019130992 -0.032393355 -0.024492446 -0.029213618 -0.04720693 -0.044620533
-0.022910943 0.025641462 0.034286316 -0.020913688 0.044541836 -0.03302782 0.00097086845 0.042524286
-0.00018687652 -0.023807742 0.01681148 -0.048698425 0.022172464 -0.04538527 0.044194702 -0.019180985
-0.010303031 -0.016783547 -0.047094665 0.050412897 0.022288153 0.042705465 0.04435271 0.047130067
0.054728556 0.03264437 0.014099275 -0.048198197 0.008710686 0.0016714864 -0.01841375 0.005890983
-0.013125929 0.05166973 -0.0082026925 -0.05390517 0.007398804 0.046317596 -0.03442373 -0.005888983
-0.014135535 -0.055810943 0.014288575 -0.032704737 -0.02240133 -0.0100633735 0.01716941 -0.045297887
00000000: 0109 243c d16f 953c 914c 963b e052 5b3c
00000010: 9b1f ac3b 54f5 873c 4076 bfbc 7e6d 23bc
00000020: 7630 8b3d c946 fa3c 7387 20bd 53fa b23c
00000030: ee93 d23b 9c22 08bc 1a98 c23c fe51 263d
00000040: 5868 6e3c 2570 f2bc cb29 2bbd f0f0 b03c
00000050: c3f5 283d a79c e4bc e5a6 f63c a88e 8bbb
00000060: ab5b 11bc 1d18 51bc 515d ce3c cbe6 853c
00000070: 3dbd 1bbd 3041 353d 9a62 b4bc da46 26bd
00000080: 86ce 6c3c 8e92 783d 6c49 8f3d 8f82 dabc
00000090: 86ce 233c f74c 253d 50a8 e73c 7b5f 08bd
000000a0: 463c 43bd 1605 f7bc 7fea 0f3a b1f8 833b
000000b0: d29e 253d adbc 41bd cfaa bd3c 7554 c2bc
000000c0: dc14 443d 029a 27bd 48f5 adba b7ee d5bc
000000d0: a176 56bd 9fe8 f83c 9992 333d 4fc9 a0bb
000000e0: 0047 933b 52e8 54bc 544a 16bd 70b0 223d
000000f0: 3d97 41ba 88a9 cdbb 7396 213c b4d6 edbb
00000100: cd45 80bc fd21 21bd faec 5fbc f70d fa3c
00000110: 6ea0 3e3d 9230 863c 56e9 38bd ea19 21bd
00000120: f3a0 cb3a c70f ddbc c099 81ba fbc8 1c3d
00000130: 262a 393d 2584 cabc ba1c ef3c e4cd 053d
00000140: 74c7 27bb 2479 803d 5387 833c e58e 18bd
00000150: 72e4 a73c 1b65 5e3d f26f 34bc 6490 af3c
00000160: 8402 043d 4406 743c 9f23 92bc 6ccc e1bc
00000170: 75c9 2cba afe6 e63c da49 a0bc 76e7 dc3c
00000180: 84aa 6c3c aa3e 4bbc 8223 24bd 7c87 f1bc
00000190: 9e41 313d 2cc6 27bc f996 bf3c e6d5 8d3c
000001a0: 8b86 f7bc 973f 70bc d9e1 863b 361f 6c3c
000001b0: 2653 d1bc c16d a3bc 6af4 423d a417 3fbd
000001c0: b5c6 a53a 9a74 b93c 204a e03c 9881 143d
000001d0: 15cf d93c 2b51 cabc bd8f 9fbb c0a6 043d
000001e0: e967 d2bc 17b9 423d 4276 a9bc fb9b 02bc
000001f0: fd7f 4f3b 9aec 33bc abfe 933d 2884 b2bb
00000200: 8a06 253d 239d 12bd edbc 64bc ecb8 5abd
00000210: 8bfc 0fbd 08b9 423d 20f9 0cbd 7b2e 313d
00000220: e14f 12bd e32f 403d d6af 4dbc 50d3 17bc
00000230: a046 483d 9341 6bbc 6995 353d 03b7 a43b
00000240: 3601 333d bced a3bc fc11 9b3b 4be9 c4bc
00000250: 6599 00bd 80f2 35bd 288b c4bb 5627 603d
00000260: a0b9 e83b 3ddd 1b3c 2ba0 5abc 929d e1bb
00000270: 39b5 093d 69de 52bd 3bde 39bb 17ce 3bbd
00000280: 5e28 12bd 4ebf ce3c 6ae7 4d3c ef42 03bd
00000290: 2e7c df3c 178c b93c 13de 02bd 44d3 c33c
000002a0: 6c93 28bd 1920 92bb 4ef8 ae3b ccbc 9ebc
000002b0: c618 d8bc fec2 16bd 80da 44bc c379 c2bc
000002c0: 2728 31bd d0d8 033c e7a3 6c3c 7f7c 34bd
000002d0: 899f b8bc e4fa 0cbd abaf dbbc b0ba 3f3a
000002e0: 75bd 2cbd da58 3c3d 1f6a 553c 2362 8b3c
000002f0: 8a61 5e3c 650a febc 6466 dc3b 979c 30bd
00000300: b110 e8bc 6b14 993c 042a 2ebd 0de5 1e3d
00000310: b4ac be3b 8087 e33b 176d f739 0925 b8bc
00000320: f7d1 8e3b 9bad 443c 99b8 9cbc e5ae 04bd
00000330: 62a4 c8bc 6651 efbc 0e5c 41bd 05c4 36bd
00000340: bbaf bbbc 0b0e d23c cf6f 0c3d 2f53 abbc
00000350: 8071 363d 2e48 07bd e181 7e3a f22d 2e3d
00000360: 49f4 43b9 7408 c3bc 3bb8 893c 0078 47bd
00000370: 07a3 b53c e8e5 39bd 8105 353d 7121 9dbc
00000380: 0bce 28bc a67d 89bc 56e6 40bd c17d 4e3d
00000390: a595 b63c edeb 2e3d 30ab 353d 750b 413d
000003a0: 0d2b 603d 1ab6 053d a500 673c 796b 45bd
000003b0: 44b7 0e3c c715 db3a 6fd8 96bc 2609 c13b
000003c0: 230e 57bc a4a3 533d 9664 06bc abcb 5cbd
000003d0: ab71 f23b 85b7 3d3d e6ff 0cbd 5ff8 c0bb
000003e0: bb98 67bc 049a 64bd a11a 6a3c 67f5 05bd
000003f0: fe82 b7bc d9e0 24bc dda6 8c3c 478a 39bd

f_layers.4.bias f4 [64]
-0.03909486 0.030631673 -0.0017612654 0.04615118 -0.040363092 -0.03247269 -0.0400436 -0.02376785
-0.0440765 -0.01399293 -0.017496908 -0.03184912 -0.0049692173 -0.01973929 0.046677914 0.04311873
-0.04864641 -0.051462445 -0.026801676 0.019672303 -0.042134363 0.04782953 0.03488645 -0.025302185
0.028088298 0.029286223 0.035856772 0.0065751937 -0.004654277 0.028690267 0.050120983 0.0490649
-0.03659688 0.04968769 -0.028165402 -0.016137742 0.041095223 -0.0493476 -0.01321821 0.04837313
-0.050031718 -0.006419355 -0.0018956771 -0.053898767 0.023780974 -0.010841774 -0.02571405 -0.021394271
0.015538039 -0.023760006 0.023698546 -0.010404558 -0.04439219 -0.0017488401 -0.04706264 0.015812963
0.022032622 -0.053061344 -0.03605093 0.0349142 0.053953808 0.022230797 -0.025564855 -0.031635813
00000000: ef21 20bd 46ef fa3c 43da e6ba 0509 3d3d
00000010: c553 25bd 1502 05bd c204 24bd cbb4 c2bc
00000020: 8f89 34bd 9a42 65bc ad55 8fbc 3974 02bd
00000030: d1d4 a2bb 4bb4 a1bc 5731 3f3d 449d 303d
00000040: 7541 47bd 49ca 52bd 308f dbbc cf27 a13c
00000050: 1595 2cbd e6e8 433d 18e5 0e3d 8746 cfbc
00000060: 6e19 e63c a9e9 ef3c 8dde 123d b974 d73b
00000070: e882 98bb da07 eb3c a94b 4d3d 47f8 483d
00000080: 9ce6 15bd 5285 4b3d 21bb e6bc 4c33 84bc
00000090: 7753 283d b620 4abd 3191 58bc e722 463d
000000a0: 0fee 4cbd 7459 d2bb 5e78 f8ba f4c4 5cbd
000000b0: 51d0 c23c b2a1 31bc 45a6 d2bc 0a43 afbc
000000c0: 4293 7e3c 58a4 c2bc 7423 c23c e177 2abc
000000d0: 96d4 35bd 5639 e5ba c1c4 40bd 308a 813c
000000e0: c27d b43c da56 59bd 24aa 13bd 3102 0f3d
000000f0: abfe 5c3d 5c1d b63c 636d d1bc 8e94 01bd

f_layers.5.weight f4 [64]
0.63080597 0.6150991 0.6071211 0.61699694 0.63024956 0.60917956 0.609722 0.6116452
0.6098759 0.6109632 0.61110616 0.6119143 0.61051446 0.6090896 0.6073747 0.61010385
0.6084899 0.6121121 0.6111754 0.6119217 0.619432 0.6212261 0.6156222 0.61551386
0.6125707 0.6081045 0.6106636 0.6132901 0.6088013 0.61135024 0.6283574 0.6099805
0.62209713 0.61316884 0.6092585 0.61138207 0.61200434 0.6297986 0.6113791 0.61243504
0.608789 0.607226 0.6152118 0.6223396 0.61341524 0.61228937 0.611491 0.6102027
0.6010641 0.61148816 0.6103695 0.6313412 0.60920006 0.6104273 0.6116719 0.6100494
0.6109712 0.61357963 0.61628586 0.6128362 0.61002946 0.6092622 0.609942 0.61248666
00000000: 807c 213f 2277 1d3f 4a6c 1b3f 83f3 1d3f
00000010: 0958 213f 31f3 1b3f be16 1c3f c894 1c3f
00000020: d420 1c3f 1668 1c3f 7471 1c3f 6aa6 1c3f
00000030: ad4a 1c3f 4ced 1b3f e97c 1b3f c42f 1c3f
00000040: fec5 1b3f 61b3 1c3f fe75 1c3f e7a6 1c3f
00000050: 1893 1e3f ac08 1f3f 6b99 1d3f 5192 1d3f
00000060: 6fd1 1c3f bdac 1b3f 7354 1c3f 9400 1d3f
00000070: 67da 1b3f 7381 1c3f 08dc 203f af27 1c3f
00000080: c241 1f3f a2f8 1c3f 5df8 1b3f 8983 1c3f
00000090: 51ac 1c3f 7b3a 213f 5783 1c3f 8bc8 1c3f
000000a0: 99d9 1b3f 2a73 1b3f 857e 1d3f a651 1f3f
000000b0: c808 1d3f ffbe 1c3f ad8a 1c3f 3f36 1c3f
000000c0: 56df 193f 7d8a 1c3f 2d41 1c3f 949f 213f
000000d0: 89f4 1b3f f744 1c3f 8896 1c3f 332c 1c3f
000000e0: 9c68 1c3f 8e13 1d3f e9c4 1d3f d5e2 1c3f
000000f0: e42a 1c3f 9cf8 1b3f 2925 1c3f edcb 1c3f

f_layers.5.bias f4 [64]
0.007033761 0.0062627066 -0.0022942305 -0.0007954403 0.008240127 -0.0044419505 -0.002760899 -0.0010106389
-0.0028173923 -0.0016412927 0.0009432489 0.004381146 -0.002618789 -0.0023726427 -0.005359055 -0.0024857572
-0.0018610868 0.001484632 -0.00076914765 0.0002905762 0.001595262 0.0049543474 0.0003120601 0.00313945
0.004170905 -0.004932981 -0.004079308 0.002667114 -0.001580407 -0.0015006928 0.0053721154 -0.003654594
-0.00023923864 0.006988905 -0.0058490625 -0.0013669096 -0.000953127 0.007792836 0.00018563414 0.0012143516
-0.0001816902 -0.0030655428 0.0056543094 0.0039840755 0.005402117 -0.00053466705 -0.0011794054 -0.0002443625
-0.002928715 0.0018196483 -0.0023639991 0.00884571 -0.0018635987 -0.0025602167 0.0016828636 -2.820934e-05
0.0048258817 -0.00045426414 0.0017219422 0.005210942 -0.00237418 -0.003373868 -0.0012383579 0.001107336
00000000: 777b e63b 6437 cd3b cd5a 16bb 1885 50ba
00000010: 9901 073c c88d 91bb 33f0 34bb 6a77 84ba
00000020: 00a4 38bb a520 d7ba 5d44 773a b78f 8f3b
00000030: fd9f 2bbb 577e 1bbb 039b afbb 16e8 22bb
00000040: b6ef f3ba fc97 c23a a0a0 49ba 7a58 9839
00000050: 1c18 d13a 1458 a23b ff9b a339 3bbf 4d3b
00000060: 16ac 883b d8a4 a1bb b7ab 85bb bfca 2e3b
00000070: a925 cfba e5b2 c4ba 9208 b03b ea81 6fbb
00000080: 22dc 7ab9 2f03 e53b 7ea9 bfbb e029 b3ba
00000090: 45db 79ba 0c5b ff3b c9a6 4239 e12a 9f3a
000000a0: 1784 3eb9 46e7 48bb c947 b93b d98c 823b
000000b0: 3e04 b13b e628 0cba 4796 9aba c81d 80b9
000000c0: afef 3fbb 4481 ee3a 53ed 1abb 99ed 103c
000000d0: ff43 f4ba 4fc9 27bb 8893 dc3a 19a3 ecb7
000000e0: 6e22 9e3b 4d2a eeb9 cbb2 e13a 8dc0 aa3b
000000f0: 2198 1bbb 1d1c 5dbb 6550 a2ba 0824 913a

f_layers.5.running_mean f4 [64]
0.079542026 -0.09146768 0.050834615 0.1341655 0.06895826 0.07088625 -0.13400532 0.08996292
-0.10235387 0.09460265 -0.0074780765 -0.08841964 0.015369253 -0.130481 0.0361559 0.032891084
-0.09195015 -0.24521978 0.0929264 0.067217305 0.0035621906 0.15300205 0.03495136 -0.03930057
-0.049541093 0.10479878 0.1586253 -0.073301986 -0.050693907 0.06152278 0.20477226 0.12204583
0.08388009 -0.07848599 -0.010406539 0.025547195 0.13654865 0.08523877 -0.057064325 -0.10081389
-0.089657046 -0.066824 -0.1751216 0.0042150565 0.05530275 0.08179836 -0.021657074 -0.011876555
0.071953766 -0.17304997 0.04417626 0.1055477 0.109749764 0.122820124 -0.21292676 -0.0016812788
0.0013455392 0.06273447 0.021083115 0.02753602 0.021652227 0.065546446 -0.043853536 0.116408765
00000000: eee6 a23d 6853 bbbd f537 503d ae62 093e
00000010: fd39 8d3d cf2c 913d b138 09be 7b3e b83d
00000020: e89e d1bd 09bf c13d a70a f5bb 5b15 b5bd
00000030: 52cf 7b3c d09c 05be 3618 143d cdb8 063d
00000040: 5c50 bcbd e51a 7bbe 3250 be3d 3aa9 893d
00000050: a473 693b 92ac 1c3e 2829 0f3d a2f9 20bd
00000060: 9aeb 4abd bea0 d63d ac6e 223e 5a1f 96bd
00000070: 6aa4 4fbd 50ff 7b3d d2af 513e 2af3 f93d
00000080: 53c9 ab3d 43bd a0bd 3080 2abc 5a48 d13c
00000090: 69d3 0b3e aa91 ae3d 48bc 69bd 8377 cebd
000000a0: 1d9e b7bd 05db 88bd 1453 33be 751e 8a3b
000000b0: 2385 623d e685 a73d 2d6a b1bc e295 42bc
000000c0: 7f5c 933d 0334 31be 2af2 343d 6429 d83d
000000d0: 7cc4 e03d 1e89 fb3d 7909 5abe 5b5e dcba
000000e0: ce5c b03a ee7a 803d 7fb6 ac3c 3893 e13c
000000f0: 0360 b13c 373d 863d c49f 33bd b867 ee3d

f_layers.5.running_var f4 [64]
0.10305161 0.07627263 0.03949619 0.07641502 0.12572257 0.0390846 0.041240584 0.080451734
0.042607345 0.06502919 0.05888087 0.07664169 0.042430256 0.043625172 0.051794037 0.035535965
0.039415143 0.07457286 0.065764114 0.04164736 0.08753243 0.0861528 0.05994256 0.07002232
0.06736309 0.057317853 0.035861075 0.0646264 0.038498927 0.054095395 0.09648189 0.047513977
0.10543444 0.07527117 0.03787753 0.05386846 0.047382805 0.10940407 0.04258702 0.05192076
0.060302485 0.029606936 0.07734862 0.068330325 0.06036044 0.04802914 0.034569066 0.061380807
0.042484533 0.06666466 0.030048484 0.10382766 0.04719936 0.046146747 0.084376186 0.043355286
0.07974956 0.076849334 0.102847695 0.08369264 0.04084773 0.036219623 0.040600028 0.08858113
00000000: b90c d33d d334 9c3d c2c6 213d 7a7f 9c3d
00000010: 6bbd 003e 2c17 203d e3eb 283d e1c3 a43d
00000020: 0a85 2e3d 062e 853d 112d 713d 52f6 9c3d
00000030: 59cb 2d3d 4fb0 323d fc25 543d 298e 113d
00000040: c671 213d a8b9 983d 56af 863d 6c96 2a3d
00000050: 3444 b33d e170 b03d 5486 753d dd67 8f3d
00000060: a9f5 893d 20c6 6a3d 10e3 123d d95a 843d
00000070: 0db1 1d3d 2293 5d3d 4c98 c53d 049e 423d
00000080: 03ee d73d c527 9a3d 7825 1b3d 2da5 5c3d
00000090: 7914 423d 3e0f e03d ba6f 2e3d ddaa 543d
000000a0: bdff 763d 3f8a f23c f468 9e3d c5f0 8b3d
000000b0: 823c 773d 34ba 443d 4b98 0d3d 716a 7b3d
000000c0: 4304 2e3d 7b87 883d 3d28 f63c 99a3 d43d
000000d0: 1e54 413d 5f04 3d3d 6ccd ac3d 5095 313d
000000e0: bd53 a33d 2f63 9d3d d0a1 d23d 0c67 ab3d
000000f0: f34f 273d 075b 143d 374c 263d 066a b53d

f_layers.8.weight f4 [32, 64]
0.027038492 0.05285593 0.058300182 0.038867284 0.011462853 0.018447807 0.016154358 -0.015756037
0.04206412 0.0041470183 0.025330128 0.06881226 0.07283302 0.0015530755 0.05576351 0.014756846
0.0063311206 0.019568985 0.03021692 -0.043380547 -0.007360045 0.036385406 -0.07838593 0.050732713
0.050087236 0.049534556 0.020998925 0.031851728 0.04998806 0.06237182 -0.05620808 -0.056252595
-0.07594249 0.08220691 0.076963834 -0.05306475 0.07389299 0.027891103 0.020132568 -0.028983453
-0.07515702 -0.046179987 0.06528851 -0.075746834 -0.014129414 0.0069529475 -0.052677758 0.034908406
0.007732691 0.011603604 -0.029902758 -0.058718435 -0.045064192 0.0671313 0.0069494676 -0.06419146
0.0077143903 0.06107685 0.06173844 -0.002831999 -0.04623393 -0.03575313 0.06753895 -0.03182505
-0.03152327 0.011834011 -0.06262122 -0.07943555 0.013757562 0.05732941 -0.054816663 0.01108495
0.071072 -0.008439856 -0.026425378 0.07589171 -0.0079107275 -0.0070536654 0.05159672 -0.056836225
0.019060528 -0.058743495 0.020435635 -0.0076855025 -0.057807684 -0.025521038 -0.05791923 0.042642675
0.075507 -0.033128813 0.06730086 0.0063947835 0.003507995 -0.033076867 0.019692501 0.010185185
-0.006748141 0.0804698 -0.049540695 -0.046718217 0.06795216 0.022543121 0.033216327 0.046539962
-0.02126088 -0.032151584 0.066933274 -0.023689173 0.04921909 0.05795544 -0.01702356 0.061689433
0.056221604 0.011253191 0.016318355 -0.08454986 -0.040019505 -0.044826217 -0.015552064 0.010550238
0.029275594 0.048816595 -0.032009143 -0.0516424 -0.012218916 -0.068162896 -0.036864217 -0.017666133
0.007435599 -0.045002963 -0.004673972 0.059346866 0.061139032 0.01319176 0.0102027245 0.07135679
-0.004534604 0.052890483 0.04348669 0.037251204 0.013119415 0.0405477 0.06675124 0.051397376
0.06594428 0.010615134 0.02108915 -0.01106103 -0.031002438 -0.008722237 0.004280711 -0.017752858
-0.031538263 0.06365518 -0.019238008 0.009305312 -0.03516932 -0.022801489 0.0742484 0.026351942
0.03194472 -0.0033454336 -0.035386622 -0.010454576 -0.025560882 0.047858573 -0.036830224 -0.046090856
-0.02010612 0.00483673 0.06272279 0.03712419 -0.030204903 -0.046188325 0.040662386 0.032716826
0.03263968 0.004194998 -0.0202046 -0.022611974 -0.018103449 -0.050466903 0.0014856708 0.0053580045
-0.034649517 0.04389137 0.060445778 -0.05957146 0.019679205 0.035146743 0.058108803 0.034717113
0.07824187 0.03361188 -0.06960478 -0.0064272713 0.0656447 -0.06894235 -0.0725993 0.040007416
0.036658466 -0.037683964 -0.030814005 -0.052810434 -0.06211827 0.001376423 0.05059037 0.0032050847
0.044018686 -0.052794207 -0.019483924 -0.060528982 -0.046190925 0.07780927 -0.000595687 -0.017994836
-0.025815997 0.07268355 -0.037933074 -0.026487412 0.04600921 0.05053422 0.0027175145 -0.009360278
0.04703303 0.06266953 0.029393137 -0.06296003 0.064983785 0.05248438 -0.03064369 0.056362785
0.030955516 0.0067260573 0.03447765 -0.027655644 -0.032772973 -0.041530248 -0.05047569 -0.021552589
-0.01600045 -0.034037054 -0.062394056 0.058604307 0.042413432 -0.062333427 -0.04238502 -0.037373167
0.011216932 0.048831202 0.053527858 0.05064616 0.024602724 0.056915488 -0.051142752 0.00018824608
00000000: d47f dd3c 767f 583d 2ccc 6e3d 4d33 1f3d
00000010: b1ce 3b3c db1f 973c 2556 843c ce12 81bc
00000020: 6d4b 2c3d b6e3 873b 2181 cf3c 71ed 8c3d
00000030: 7a29 953d 9190 cb3a 4768 643d b3c6 713c
00000040: 4a75 cf3b 234f a03c 7989 f73c cdaf 31bd
00000050: 882c f1bb dd08 153d cd88 a0bd 1bcd 4f3d
00000060: 4628 4d3d bfe4 4a3d f005 ac3c f576 023d
00000070: 48c0 4c3d 9879 7f3d 723a 66bd 1f69 66bd
00000080: bc87 9bbd 195c a83d 379f 9d3d 6c5a 59bd
00000090: 3555 973d e27b e43c 0eed a43c b56e edbc
000000a0: eceb 99bd 3a27 3dbd fbb5 853d 2821 9bbd
000000b0: 0f7f 67bc 8dd5 e33b a2c4 57bd 1efc 0e3d
000000c0: 8362 fd3b 0b1d 3e3c a1f6 f4bc be82 70bd
000000d0: 3b95 38bd 237c 893d 5cb8 e33b d076 83bd
000000e0: ffc8 fc3b b82b 7a3d 72e1 7c3d 0f99 39bb
000000f0: ca5f 3dbd e071 12bd dc51 8a3d fc5a 02bd
00000100: 8b1e 01bd 71e3 413c 8e3f 80bd 1baf a2bd
00000110: 6667 613c 3ed2 6a3d 7087 60bd a69d 353c
00000120: 328e 913d 5247 0abc 097a d8bc 1d6d 9b3d
00000130: ff9b 01bc 6f22 e7bb 1557 533d 1acd 68bd
00000140: d324 9c3c 059d 70bd a268 a73c abd6 fbbb
00000150: c0c7 6cbd 7f11 d1bc b73c 6dbd 16aa 2e3d
00000160: 6aa3 9a3d 14b2 07bd 09d5 893d 558b d13b
00000170: 64e6 653b 9c7b 07bd 2b52 a13c c3df 263c
00000180: 821f ddbb 5acd a43d 2feb 4abd 9a5b 3fbd
00000190: 812a 8b3d 5aac b83c d80d 083d b0a0 3e3d
000001a0: 4c2b aebc 61b1 03bd 5014 893d cc0f c2bc
000001b0: f599 493d af62 6d3d fe74 8bbc 0fae 7c3d
000001c0: a048 663d 4e5f 383c 12ae 853c 7a28 adbd
000001d0: 7eeb 23bd b29b 37bd 16ce 7ebc e8da 2c3c
000001e0: 5fd3 ef3c e9f3 473d 051c 03bd fb86 53bd
000001f0: d931 48bc fd98 8bbd effe 16bd 91b8 90bc
00000200: 53a6 f33b 0755 38bd 1e28 99bb b315 733d
00000210: ec6c 7a3d 4022 583c 5429 273c 8223 923d
00000220: 0497 94bb b1a3 583d 191f 323d b894 183d
00000230: d1f2 563c 5815 263d e0b4 883d 0e86 523d
00000240: cb0d 873d 19eb 2d3c 27c3 ac3c 5339 35bc
00000250: d3f8 fdbc b7e7 0ebc 3545 8c3b 716e 91bc
00000260: 442e 01bd a65d 823d 0799 9dbc 4f75 183c
00000270: b40d 10bd 30ca babc 8c0f 983d 07e0 d73c
00000280: 77d8 023d 103f 5bbb 90f1 10bd ac49 2bbc
00000290: 0e65 d1bc 5a07 443d 4adb 16bd c4c9 3cbd
000002a0: 97b5 a4bc 6f7d 9e3b ce74 803d 890f 183d
000002b0: 4670 f7bc f82f 3dbd 9a8d 263d 1402 063d
000002c0: 2fb1 053d 3276 893b 1e84 a5bc bf3c b9bc
000002d0: af4d 94bc 62b6 4ebd d7ba c23a 3392 af3b
000002e0: a7ec 0dbd 70c7 333d fe95 773d 3401 74bd
000002f0: 4936 a13c 08f6 0f3d 7f03 6e3d 8833 0e3d
00000300: 463d a03d 9cac 093d f38c 8ebd dc9b d2bb
00000310: ba70 863d a631 8dbd f1ae 94bd d1de 233d
00000320: 3027 163d 805a 1abd a76d fcbc c14f 58bd
00000330: ba6f 7ebd 1869 b43a d937 4f3d 660c 523b
00000340: f04c 343d bd3e 58bd c09c 9fbc 3ded 77bd
00000350: b232 3dbd 775a 9f3d e127 1cba e869 93bc
00000360: 127c d3bc 1ddb 943d b65f 1bbd 21fc d8bc
00000370: 2774 3c3d f8fc 4e3d 5418 323b da5b 19bc
00000380: b5a5 403d e258 803d e0c9 f03c 30f1 80bd
00000390: 3816 853d dcf9 563d 7a08 fbbc aadc 663d
000003a0: 6c96 fd3c 4266 dc3b 7038 0d3d 178e e2bc
000003b0: f43c 06bd 9f1b 2abd 99bf 4ebd 0e8f b0bc
000003c0: 6013 83bc 706a 0bbd e990 7fbd 120b 703d
000003d0: b5b9 2d3d 5651 7fbd ea9b 2dbd 9b14 19bd
000003e0: 39c7 373c 3a03 483d 0740 5b3d 5972 4f3d
000003f0: a78b c93c 3720 693d 107b 51bd ec63 4539

f_layers.8.bias f4 [32]
-0.009592509 -0.06006632 0.07033459 -0.020494943 0.063816525 0.056322467 0.010599845 -0.008630468
-0.007952357 0.0067143096 -0.018590858 -0.07640316 -0.010899071 -0.018210009 -0.013749557 -0.03865
-0.07262323 -0.044789128 0.039606325 -0.036299363 0.019069424 0.012400928 0.027670948 -0.067470215
0.056371443 0.015590502 0.020079996 0.021925291 -0.008300387 -0.012935628 -0.03853971 0.022004278
00000000: e629 1dbc 1a08 76bd 950b 903d 03e5 a7bc
00000010: 3db2 823d 63b2 663d f9aa 2d3c ce66 0dbc
00000020: 9a4a 02bc b603 dc3b db4b 98bc 4379 9cbd
00000030: 0492 32bc 282d 95bc d245 61bc 764f 1ebd
00000040: 7dbb 94bd ce74 37bd 3e3a 223d a4ae 14bd
00000050: 7b37 9c3c 432d 4b3c 2fae e23c d32d 8abd
00000060: bee5 663d 4e6f 7f3c ce7e a43c ab9c b33c
00000070: 59fe 07bc f5ef 53bc d1db 1dbd 5142 b43c

f_layers.9.weight f4 [32]
0.61292887 0.6103526 0.610028 0.6120463 0.618419 0.6069497 0.61802506 0.6196735
0.618324 0.61670977 0.6145105 0.6215352 0.6161561 0.61246663 0.6214953 0.61630964
0.614414 0.614144 0.61903465 0.6140839 0.6131693 0.61662775 0.60979223 0.6203432
0.6148551 0.6202929 0.6162201 0.6184824 0.61071765 0.61849105 0.6095209 0.6148957
00000000: e8e8 1c3f 1140 1c3f cc2a 1c3f 11af 1c3f
00000010: b550 1e3f 0e61 1b3f e436 1e3f eca2 1e3f
00000020: 7b4a 1e3f b1e0 1d3f 8f50 1d3f ee1c 1f3f
00000030: 68bc 1d3f 9dca 1c3f 511a 1f3f 78c6 1d3f
00000040: 3c4a 1d3f 8b38 1d3f 0e79 1e3f 9a34 1d3f
00000050: aaf8 1c3f 51db 1d3f 581b 1c3f d0ce 1e3f
00000060: 2567 1d3f 84cb 1e3f 9ac0 1d3f dd54 1e3f
00000070: fe57 1c3f 6e55 1e3f 9009 1c3f ce69 1d3f

f_layers.9.bias f4 [32]
0.008829143 0.021991774 -0.015096964 -0.00811413 0.021865705 -0.015772928 0.042369667 0.033202782
0.03299138 0.052678134 0.046541356 0.030722566 0.03522694 -0.0036192911 0.049053904 0.052697927
0.009551594 -0.005542527 0.021752933 0.04248581 0.0007251656 0.03772636 -0.009659138 0.04162929
0.016096033 0.044548765 0.040935524 0.025979877 0.013683008 0.04256813 -0.009019928 0.012303797
00000000: 1ca8 103c 1828 b43c 4259 77bc 21f1 04bc
00000010: b51f b33c 3a36 81bc d18b 2d3d a4ff 073d
00000020: f821 073d 07c5 573d 26a2 3e3d e4ad fb3c
00000030: 204a 103d a131 6dbb bfec 483d c8d9 573d
00000040: 4a7e 1c3c 169e b5bb 3533 b23c 9a05 2e3d
00000050: 0a19 3e3a f586 1a3d 5c41 1ebc 7983 2a3d
00000060: d4db 833c c478 363d 02ac 273d c0d3 d43c
00000070: b22e 603c eb5b 2e3d 52c8 13bc dd95 493c

f_layers.9.running_mean f4 [32]
0.12934028 -0.05751061 0.2199628 -0.0055029225 -0.059373707 0.05933779 -0.055986136 -0.0994842
-0.04743841 -0.16701268 -0.17246646 -0.1892524 -0.1366949 0.045996543 -0.18001106 -0.22419383
-0.21818906 0.08178429 -0.02753732 -0.17641883 0.021970242 -0.052456867 0.0897738 -0.2287297
-0.010514666 -0.15279639 -0.1749403 -0.02774574 -0.04710551 -0.09753215 0.119598016 -0.10841862
00000000: c771 043e 3f90 6bbd ee3d 613e dc51 b4bb
00000010: d831 73bd 2f0c 733d b851 65bd 5fbe cbbd
00000020: c74e 42bd 5f05 2bbe 0c9b 30be 62cb 41be
00000030: bff9 0bbe df66 3c3d d254 38be 1193 65be
00000040: f46c 5fbe 867e a73d f295 e1bc 23a7 34be
00000050: f0fa b33c 03dd 56bd 53db b73d 1e38 6abe
00000060: b545 2cbc a876 1cbe 8d23 33be 094b e3bc
00000070: b5f1 40bd f0be c7bd ceef f43d 950a debd

f_layers.9.running_var f4 [32]
0.0455771 0.061432958 0.08335566 0.074938804 0.06851025 0.06647692 0.11226447 0.07492034
0.06667983 0.113192245 0.1011629 0.07417692 0.07103848 0.050435938 0.1498624 0.093557775
0.06336728 0.080510356 0.065966435 0.09751473 0.05160528 0.10222665 0.05059116 0.081363015
0.05202469 0.11637162 0.11096638 0.08171038 0.053493842 0.09204273 0.09581901 0.06392735
00000000: 0eaf 3a3d 20a1 7b3d 5fb6 aa3d 8479 993d
00000010: 1a4f 8c3d 0d25 883d eaea e53d d66f 993d
00000020: 6f8f 883d 56d1 e73d 7f2e cf3d 12ea 973d
00000030: 9f7c 913d ea95 4e3d 8775 193e 389b bf3d
00000040: b4c6 813d 9de2 a43d 6919 873d ceb5 c73d
00000050: 0f60 533d 355c d13d ad38 4f3d a7a1 a63d
00000060: d717 553d 3e54 ee3d 5742 e33d c657 a73d
00000070: 5c1c 5b3d e680 bc3d c23c c43d 58ec 823d

f_layers.12.weight f4 [1, 32]
-0.024221951 -0.073479265 0.05452105 0.029774753 -0.08951189 0.03778224 -0.11830016 -0.10112543
-0.09834431 -0.13361906 -0.12015313 -0.10708805 -0.09979635 0.025259307 -0.12963217 -0.12570244
-0.062322527 0.044610467 -0.08946653 -0.108348794 0.022600483 -0.107265726 0.029416662 -0.1135609
-0.05292944 -0.11510534 -0.10912015 -0.088476025 -0.056438714 -0.119540304 0.02925624 -0.06939162
00000000: 1d6d c6bc 4c7c 96bd 7751 5f3d 2fea f33c
00000010: 0352 b7bd 8dc1 1a3d 5b47 f2bd d91a cfbd
00000020: be68 c9bd 6fd3 08be d812 f6bd fb50 dbbd
00000030: 0762 ccbd 9bec ce3c 4cbe 04be 24b8 00be
00000040: e845 7fbd 77b9 363d 3a3a b7bd f9e5 ddbd
00000050: a624 b93c 22ae dbbd 36fb f03c 9e92 e8bd
00000060: 8acc 58bd 59bc ebbd 637a dfbd eb32 b5bd
00000070: 482c 67bd 8cd1 f4bd c8aa ef3c 321d 8ebd
